neurodyn/params.npy (npy, 4928 bytes, 1 tensors)

array f8 [101, 6]
5.351638301370275e-13 -4.85298069924494e-13 1.7263425390187399e-12 1.2793355965281568 1.2270686889863605 0.22198286670058892 5.318705963548514e-13 -4.913957061043156e-13
1.7263136349764079e-12 1.2793355965281568 1.2270686889863605 0.22198286670058892 5.514558369445944e-13 -5.021946512731117e-13 1.7264827784954523e-12 1.2793355965281568
1.2270686889863605 0.22198286670058892 5.486427956678864e-13 -5.072991952785526e-13 1.7264596287996268e-12 1.2793355965281568 1.2270686889863605 0.22198286670058892
5.645539661236026e-13 -5.160538700040057e-13 1.7266153283810148e-12 1.2793355965281568 1.2270686889863605 0.22198286670058892 5.622580590040249e-13 -5.202295566631024e-13
1.7265979674057616e-12 1.2793355965281568 1.2270686889863605 0.22198286670058892 5.744089282569106e-13 -5.267079868156172e-13 1.7267335349973464e-12 1.2793355965281568
1.2270686889863605 0.22198286670058892 5.726335311442399e-13 -5.300346907119558e-13 1.7267216718123033e-12 1.2793355965281568 1.2270686889863605 0.22198286670058892
5.83882792025826e-13 -5.363307060260418e-13 1.726865353266685e-12 1.2793355965281568 1.2270686889863605 0.22198286670058892 5.822743113570542e-13 -5.39204377855735e-13
1.7268558533897534e-12 1.2793355965281568 1.2270686889863605 0.22198286670058892 5.902923759075615e-13 -5.434387392539532e-13 1.7269747778797687e-12 1.2793355965281568
1.2270686889863605 0.22198286670058892 5.890971144648987e-13 -5.45695778581299e-13 1.726969588256385e-12 1.2793355965281568 1.2270686889863605 0.22198286670058892
5.949286524228433e-13 -5.485758451641501e-13 1.7270681055072531e-12 1.2793355965281568 1.2270686889863605 0.22198286670058892 5.940506628298274e-13 -5.50351289377171e-13
1.7270661190236225e-12 1.2793355965281568 1.2270686889863605 0.22198286670058892 6.002686383599367e-13 -5.537690758979422e-13 1.7271873151887707e-12 1.2793355965281568
1.2270686889863605 0.22198286670058892 5.993647953590617e-13 -5.554147811537753e-13 1.7271855982103926e-12 1.2793355965281568 1.2270686889863605 0.22198286670058892
6.035654185650379e-13 -5.575215213087121e-13 1.727280565747349e-12 1.2793355965281568 1.2270686889863605 0.22198286670058892 6.029202380974978e-13 -5.588068553323329e-13
1.7272815937601778e-12 1.2793355965281568 1.2270686889863605 0.22198286670058892 6.058803891773931e-13 -5.601365466734807e-13 1.7273565902241126e-12 1.2793355965281568
1.2270686889863605 0.22198286670058892 6.054261597779447e-13 -5.611418575281465e-13 1.7273594490063421e-12 1.2793355965281568 1.2270686889863605 0.22198286670058892
6.090305421069097e-13 -5.630819238927743e-13 1.727465720123544e-12 1.2793355965281568 1.2270686889863605 0.22198286670058892 6.084965622827082e-13 -5.640790748628689e-13
1.7274681725689978e-12 1.2793355965281568 1.2270686889863605 0.22198286670058892 6.107074738958895e-13 -5.650923224318782e-13 1.727542364041558e-12 1.2793355965281568
1.2270686889863605 0.22198286670058892 6.103642982760906e-13 -5.658403496097361e-13 1.7275467637978708e-12 1.2793355965281568 1.2270686889863605 0.22198286670058892
6.124631040131396e-13 -5.668457598645831e-13 1.7276270093828352e-12 1.2793355965281568 1.2270686889863605 0.22198286670058892 6.121581067781475e-13 -5.674776284700275e-13
1.7276313963711433e-12 1.2793355965281568 1.2270686889863605 0.22198286670058892 6.186805719240403e-13 -5.724612743796238e-13 1.7279587615138058e-12 1.2793355965281568
1.2270686889863605 0.22198286670058892 6.181246185810343e-13 -5.731883221372046e-13 1.7279614985121372e-12 1.2793355965281568 1.2270686889863605 0.22198286670058892
6.189805246795983e-13 -5.735999100732523e-13 1.728038437243282e-12 1.2793355965281568 1.2270686889863605 0.22198286670058892 6.188860633935017e-13 -5.737925470214562e-13
1.7280433569704607e-12 1.2793355965281568 1.2270686889863605 0.22198286670058892 6.189444142364939e-13 -5.740932570499168e-13 1.7280662829789119e-12 1.2793355965281568
1.2270686889863605 0.22198286670058892 6.19166029276643e-13 -5.740433242131833e-13 1.7280800009957704e-12 1.2793355965281568 1.2270686889863605 0.22198286670058892
6.191794830645523e-13 -5.742387654360147e-13 1.72809398537526e-12 1.2793355965281568 1.2270686889863605 0.22198286670058892 6.193905495913071e-13 -5.742552649152875e-13
1.728111967656981e-12 1.2793355965281568 1.2270686889863605 0.22198286670058892 6.193959069203215e-13 -5.744480304524227e-13 1.728125917837924e-12 1.2793355965281568
1.2270686889863605 0.22198286670058892 6.196032468028285e-13 -5.744557856519786e-13 1.728143908955062e-12 1.2793355965281568 1.2270686889863605 0.22198286670058892
6.196005341340361e-13 -5.746570901663847e-13 1.7281586135912572e-12 1.2793355965281568 1.2270686889863605 0.22198286670058892 6.197615795869214e-13 -5.746470834971284e-13
1.7281721237201457e-12 1.2793355965281568 1.2270686889863605 0.22198286670058892 6.198125770626084e-13 -5.748948116411443e-13 1.7281960781854643e-12 1.2793355965281568
1.2270686889863605 0.22198286670058892 6.199896888633824e-13 -5.748520846788441e-13 1.7282092761886417e-12 1.2793355965281568 1.2270686889863605 0.22198286670058892
6.200064661115199e-13 -5.75059787090313e-13 1.72822821939411e-12 1.2793355965281568 1.2270686889863605 0.22198286670058892 6.201768471752508e-13 -5.750276059727074e-13
1.7282423476720925e-12 1.2793355965281568 1.2270686889863605 0.22198286670058892 6.201822009673518e-13 -5.752052153740743e-13 1.7282586114323998e-12 1.2793355965281568
00000000: 5310 c9c6 53d4 623d bb9b 7329 2d13 61bd
00000010: 486d 0370 c15e 7e3d 4227 3b9a 2878 f43f
00000020: b045 12c7 12a2 f33f 762c 6040 ef69 cc3f
00000030: bb66 ae18 aab6 623d 9da8 8a5a 194a 61bd
00000040: 38bc 0b1d a05e 7e3d 4227 3b9a 2878 f43f
00000050: b045 12c7 12a2 f33f 762c 6040 ef69 cc3f
00000060: 7c70 2596 1267 633d be8d a106 5eab 61bd
00000070: 83b2 661f 635f 7e3d 4227 3b9a 2878 f43f
00000080: b045 12c7 12a2 f33f 762c 6040 ef69 cc3f
00000090: c18e aa27 bc4d 633d ea3e 924d 58d9 61bd
000000a0: 8422 d16e 485f 7e3d 4227 3b9a 2878 f43f
000000b0: b045 12c7 12a2 f33f 762c 6040 ef69 cc3f
000000c0: 4f95 ecd0 0cdd 633d 9bfc 6135 3328 62bd
000000d0: 35e3 38f1 fb5f 7e3d 4227 3b9a 2878 f43f
000000e0: b045 12c7 12a2 f33f 762c 6040 ef69 cc3f
000000f0: e20b 92d0 5ec8 633d 4816 b9af cf4d 62bd
00000100: 69af 2aed e75f 7e3d 4227 3b9a 2878 f43f
00000110: b045 12c7 12a2 f33f 762c 6040 ef69 cc3f
00000120: 495e c8cf d035 643d 8654 e6ed 2988 62bd
00000130: ba4b a839 8460 7e3d 4227 3b9a 2878 f43f
00000140: b045 12c7 12a2 f33f 762c 6040 ef69 cc3f
00000150: d32b 4e06 d325 643d 68a4 45c9 20a6 62bd
00000160: 8160 438c 7660 7e3d 4227 3b9a 2878 f43f
00000170: b045 12c7 12a2 f33f 762c 6040 ef69 cc3f
00000180: 6496 df0d 268b 643d cfe0 bb68 d6de 62bd
00000190: 8820 8b33 1c61 7e3d 4227 3b9a 2878 f43f
000001a0: b045 12c7 12a2 f33f 762c 6040 ef69 cc3f
000001b0: db3b 7926 a97c 643d 4de1 2ca5 b8f8 62bd
000001c0: 71b8 ac3f 1161 7e3d 4227 3b9a 2878 f43f
000001d0: b045 12c7 12a2 f33f 762c 6040 ef69 cc3f
000001e0: 198a 628c e1c4 643d a3dd f76a dc1e 63bd
000001f0: 7721 fd5b 9a61 7e3d 4227 3b9a 2878 f43f
00000200: b045 12c7 12a2 f33f 762c 6040 ef69 cc3f
00000210: e722 9076 1dba 643d 7cb4 d3cb 3033 63bd
00000220: 3946 4860 9461 7e3d 4227 3b9a 2878 f43f
00000230: b045 12c7 12a2 f33f 762c 6040 ef69 cc3f
00000240: 68d0 fc12 a4ee 643d 757b 10c7 214d 63bd
00000250: 414a 71f5 0562 7e3d 4227 3b9a 2878 f43f
00000260: b045 12c7 12a2 f33f 762c 6040 ef69 cc3f
00000270: 36c5 6891 bbe6 643d 7648 58ac 1f5d 63bd
00000280: a2d4 22ab 0362 7e3d 4227 3b9a 2878 f43f
00000290: b045 12c7 12a2 f33f 762c 6040 ef69 cc3f
000002a0: ce47 503e bd1e 653d faa4 688d e87b 63bd
000002b0: 3529 ee65 8f62 7e3d 4227 3b9a 2878 f43f
000002c0: b045 12c7 12a2 f33f 762c 6040 ef69 cc3f
000002d0: 76b3 931f 9916 653d 0c8d 534a bb8a 63bd
000002e0: 52f1 2a6b 8d62 7e3d 4227 3b9a 2878 f43f
000002f0: b045 12c7 12a2 f33f 762c 6040 ef69 cc3f
00000300: 2039 db19 6f3c 653d c09d 361a b59d 63bd
00000310: 8c28 a3e8 fa62 7e3d 4227 3b9a 2878 f43f
00000320: b045 12c7 12a2 f33f 762c 6040 ef69 cc3f
00000330: 7a88 876a 9f36 653d 409d 80e1 48a9 63bd
00000340: 939c 0d18 fc62 7e3d 4227 3b9a 2878 f43f
00000350: b045 12c7 12a2 f33f 762c 6040 ef69 cc3f
00000360: bc56 4f0f 4951 653d 10eb baf0 42b5 63bd
00000370: aa36 1a8f 5263 7e3d 4227 3b9a 2878 f43f
00000380: b045 12c7 12a2 f33f 762c 6040 ef69 cc3f
00000390: 0e36 99ad 314d 653d 4809 8407 51be 63bd
000003a0: 10b1 ddda 5563 7e3d 4227 3b9a 2878 f43f
000003b0: b045 12c7 12a2 f33f 762c 6040 ef69 cc3f
000003c0: 02de 62d1 a86d 653d 2408 9084 cacf 63bd
000003d0: 7f48 9060 d063 7e3d 4227 3b9a 2878 f43f
000003e0: b045 12c7 12a2 f33f 762c 6040 ef69 cc3f
000003f0: d549 558b d968 653d c741 9aca c5d8 63bd
00000400: 95d2 6534 d363 7e3d 4227 3b9a 2878 f43f
00000410: b045 12c7 12a2 f33f 762c 6040 ef69 cc3f
00000420: c60b 328f c37c 653d 91bc 652e e6e1 63bd
00000430: f4fe dabd 2864 7e3d 4227 3b9a 2878 f43f
00000440: b045 12c7 12a2 f33f 762c 6040 ef69 cc3f
00000450: c99d 1040 ac79 653d 50df b403 a3e8 63bd
00000460: 0f2f 6fd0 2d64 7e3d 4227 3b9a 2878 f43f
00000470: b045 12c7 12a2 f33f 762c 6040 ef69 cc3f
00000480: c059 4cc4 938c 653d caeb 2a55 b1f1 63bd
00000490: 3c28 c054 8a64 7e3d 4227 3b9a 2878 f43f
000004a0: b045 12c7 12a2 f33f 762c 6040 ef69 cc3f
000004b0: 5f50 b57d d489 653d 02e3 8e52 62f7 63bd
000004c0: 369f 8f63 8f64 7e3d 4227 3b9a 2878 f43f
000004d0: b045 12c7 12a2 f33f 762c 6040 ef69 cc3f
000004e0: 609d 8e45 94c4 653d b3e0 dbd3 4524 64bd
000004f0: b775 b2d0 0866 7e3d 4227 3b9a 2878 f43f
00000500: b045 12c7 12a2 f33f 762c 6040 ef69 cc3f
00000510: d2c1 a054 92bf 653d 22a8 1a49 d22a 64bd
00000520: ef34 84f8 0b66 7e3d 4227 3b9a 2878 f43f
00000530: b045 12c7 12a2 f33f 762c 6040 ef69 cc3f
00000540: da78 69ea 47c7 653d e405 bd57 872e 64bd
00000550: af5e d2ac 6466 7e3d 4227 3b9a 2878 f43f
00000560: b045 12c7 12a2 f33f 762c 6040 ef69 cc3f
00000570: ef81 4f1a 6ec6 653d bf95 8588 4330 64bd
00000580: 1272 de58 6a66 7e3d 4227 3b9a 2878 f43f
00000590: b045 12c7 12a2 f33f 762c 6040 ef69 cc3f
000005a0: 0098 91a6 f4c6 653d af49 64ec f832 64bd
000005b0: fdaa 6ec7 8466 7e3d 4227 3b9a 2878 f43f
000005c0: b045 12c7 12a2 f33f 762c 6040 ef69 cc3f
000005d0: a399 ffa8 f3c8 653d 5357 3fc9 8532 64bd
000005e0: 60b7 4698 9466 7e3d 4227 3b9a 2878 f43f
000005f0: b045 12c7 12a2 f33f 762c 6040 ef69 cc3f
00000600: 0b8c b6ae 12c9 653d 42e7 6171 4834 64bd
00000610: 5b8e bcb7 a466 7e3d 4227 3b9a 2878 f43f
00000620: b045 12c7 12a2 f33f 762c 6040 ef69 cc3f
00000630: 4047 665e f9ca 653d 5cb7 f47c 6e34 64bd
00000640: 0b59 2b73 b966 7e3d 4227 3b9a 2878 f43f
00000650: b045 12c7 12a2 f33f 762c 6040 ef69 cc3f
00000660: 14f3 ceb8 05cb 653d 8c16 a5f9 2a36 64bd
00000670: ee37 8988 c966 7e3d 4227 3b9a 2878 f43f
00000680: b045 12c7 12a2 f33f 762c 6040 ef69 cc3f
00000690: d51f acd0 e3cc 653d e3b5 81db 3c36 64bd
000006a0: 7098 9346 de66 7e3d 4227 3b9a 2878 f43f
000006b0: b045 12c7 12a2 f33f 762c 6040 ef69 cc3f
000006c0: da34 658f ddcc 653d 25d8 b708 0d38 64bd
000006d0: 457e 9e3a ef66 7e3d 4227 3b9a 2878 f43f
000006e0: b045 12c7 12a2 f33f 762c 6040 ef69 cc3f
000006f0: d6f8 d9e7 50ce 653d 83bd d2f5 f537 64bd
00000700: 81f8 1ace fe66 7e3d 4227 3b9a 2878 f43f
00000710: b045 12c7 12a2 f33f 762c 6040 ef69 cc3f
00000720: d29b 727f c6ce 653d fc6e b52e 313a 64bd
00000730: 6732 376c 1a67 7e3d 4227 3b9a 2878 f43f
00000740: b045 12c7 12a2 f33f 762c 6040 ef69 cc3f
00000750: 1239 cde3 5ed0 653d 9871 29a9 ce39 64bd
00000760: 571f 94a3 2967 7e3d 4227 3b9a 2878 f43f
00000770: b045 12c7 12a2 f33f 762c 6040 ef69 cc3f
00000780: a647 5793 85d0 653d 4472 0697 ad3b 64bd
00000790: 7d42 a07a 3f67 7e3d 4227 3b9a 2878 f43f
000007a0: b045 12c7 12a2 f33f 762c 6040 ef69 cc3f
000007b0: 6aab 9172 0ed2 653d fd72 a562 633b 64bd
000007c0: 20c3 8ec4 4f67 7e3d 4227 3b9a 2878 f43f
000007d0: b045 12c7 12a2 f33f 762c 6040 ef69 cc3f
000007e0: 89db e3ca 1ad2 653d c956 bbec fc3c 64bd
000007f0: 47bf c584 6267 7e3d 4227 3b9a 2878 f43f
